networks/cartPoleNet.pth (torch, 71943 bytes, 6 tensors)

layer1.weight f4 [128, 4]
00000000: bedc 31be 3624 9cbc b2ba d5be b125 c2bc
00000010: cc2b ef3c 26ea 1fbe 2f43 ed3e e940 e63d
00000020: 5060 923c 6769 f43d 3ada fc3e 4730 8cbd
00000030: b903 473e aed5 d2bd e1b7 a1bf 353c 54be
00000040: 518b 8b3e 1396 49be 34fd a23f 6b07 933e
00000050: 99f7 a43e 4205 afbe 6075 333f 4514 edbd
00000060: caea 8abe 9588 04bf 33dc 83bf 8554 d9be
00000070: 53ea 27bf f1ec 24be 6774 003f 9809 2b3e
00000080: e2f2 463d b307 bebe a05b b1be 4fe3 f0be
00000090: 36df 8b3e 50a1 0f3e 6931 733e 98f5 3f3e
000000a0: 7fd8 9ebd f084 8cbe d47b 32bf abd2 97be
000000b0: 0606 7d3e b9c9 06bf 73af a53e f05a aa3e
000000c0: bb3c 3cbd 23fd ef3e 684f c43d 6d84 cfbe
000000d0: 91c8 493f 35dd ec3e ae7b c93e c4d4 873e
000000e0: ac77 3e3e c423 193e 63c9 a63e 2388 8dbe
000000f0: eb58 413e fa05 ae3e ba42 403e 3783 813e
00000100: 4939 eb3e d62d 053e 39bd 27bf 11ab 503d
00000110: 2fd2 913e 8660 4ebe ddb7 ccbf 1c78 5bbe
00000120: d2f1 163f f497 12be 6467 c1bf 7b1c c7be
00000130: 28a7 2dbe 8832 a63e 8c65 0cbf 54ed d0be
00000140: 18a2 8e3e 0a1c f6be 69b3 75bf da61 6bbe
00000150: 3ce3 2abf 3944 01bf 01c9 81bf dc4a 9bbe
00000160: 7e99 b43e 6faa 103f 2a1a ef3f e525 ef3e
00000170: 290a 533f 9cd4 1fbe 5f3b 8abf 801b c4be
00000180: e3eb 17bf 33ed b1be 46f1 49bf edd9 86be
00000190: 4911 3abe 5f44 6c3e d235 c83e 0656 a73d
000001a0: 4b85 8e3e 0769 093e 05d5 873e fcb0 653d
000001b0: 3d5b 9fbe eced 12bd f256 3abf 8f98 1cbe
000001c0: 2598 43bf 430b eebe 06ec 59bf 7b84 57be
000001d0: 0c57 9b3e 53e5 023f 97b7 ff3f 6d19 e33e
000001e0: e5ec 31bd b628 903e 1fb5 773f 4eef 44be
000001f0: bc17 cc3e 4355 a83e fc20 1f3f e974 1f3e
00000200: 896c f83e 300b 40bd 50a8 d3bf f5fe aabe
00000210: cbf4 5c3d 74d9 d9be 1b46 40bf 5d80 78bd
00000220: d5db dfbd 624b 74be 0820 2abe 7ff4 763e
00000230: 8413 433e 0e4a e13e 0be0 8b3f e912 ad3e
00000240: d466 0fbf b6de e7be 53b4 1cbf c8c8 9a3d
00000250: b2fc 05bf 0447 e5be 4227 ffbd c68a 91be
00000260: e8ea c1be 83ce 3fbe 8c84 5cbf bad5 933d
00000270: 67c2 323e 7f3d a4be 8ff4 37bf 8d50 cdbe
00000280: 23f3 a83e c52a 6fbe fe23 e4bc 69e5 e13d
00000290: bbbb 833f 2c8d 363f c097 08bf 3423 c9be
000002a0: 57d9 85be 9ce9 d8be e8a9 b6bf 0626 f3be
000002b0: c7e0 dbbe f93e edbe 88ec dcbe e2e3 5d3e
000002c0: 9046 743f e3d5 c03e bc53 32bf 4a81 88be
000002d0: 872d cfbd 4f1e 08be 0a9b d7be b21e 86be
000002e0: 8c1d ae3e c855 ed3e a529 723f 0212 7e3e
000002f0: c2e2 cbbe a08f 033f fe42 523e 96b8 7fbe
00000300: f0e1 993f 3677 1f3f bb8d 55be 7f4c 1fbe
00000310: 29b2 0ebe 9e7a 9b3e 46ee debf ffb3 103e
00000320: 077a ba3e 5176 a73e 82f8 3b3f f01e 86bd
00000330: 8d32 8a3f ecd1 1e3f e9ef 353e 34e2 a6be
00000340: 9cfc b9be e129 82be cd1f 153f a32c 8fbd
00000350: 146c 14be 3a0d ccbb c2dd 7ebc bf06 0ebd
00000360: b9ed 19bf 7c8e 61be 727a 4bbf f364 0abe
00000370: 3a2f 433f e7c4 b4bd 6dec 85bf c302 b8bd
00000380: ae0f 6dbf df56 1dbf 84c0 6fbf 04d7 25bf
00000390: 941f fbbc e6cb 923e fa96 3d3f 5305 e63e
000003a0: 57f6 6d3e e3af 42bd 59eb 1a3f f6ae 913e
000003b0: 0723 ee3e 646b 0a3f 02bb 1840 a05a ef3e
000003c0: d983 f1bd cd0b 1f3f 76f5 873f 48dd 053f
000003d0: 263c 933e 40fc e8bd 4d68 9fbf bd71 dfbe
000003e0: fd37 3a3f 18c8 cb3e fefc cdbf 0340 b3be
000003f0: 2c22 4f3e ca51 173f 0e20 dc3f 9a73 f53e
-0.17369363 -0.019060235 -0.41744 -0.023699613 0.029195689 -0.15616664 0.4634032 0.112428494
0.017868191 0.119341664 0.49385244 -0.06845146 0.19435014 -0.102946624 -1.263424 -0.20726092
0.27254727 -0.19686155 1.2733521 0.28716597 0.32220152 -0.341837 0.70100975 -0.11576132
-0.27132255 -0.5177091 -1.0301574 -0.42447296 -0.65591925 -0.16106011 0.50177616 0.16702878
0.048571475 -0.3711525 -0.34640217 -0.47048423 0.27318734 0.1402638 0.23749317 0.1874603
-0.07756137 -0.27445173 -0.69720197 -0.29652914 0.24709329 -0.52651554 0.3236042 0.33272505
-0.045956355 0.46872815 0.09585458 -0.4053072 0.78821665 0.46262518 0.39352173 0.26529515
0.18600339 0.1495505 0.3257552 -0.27642927 0.18881576 0.33988935 0.18775454 0.2529542
0.45942143 0.13005766 -0.65523106 0.05094439 0.2848067 -0.20154008 -1.5993611 -0.21432537
0.5896274 -0.14315778 -1.5109677 -0.38888916 -0.16958296 0.32460427 -0.5484245 -0.40806067
0.27858043 -0.48068267 -0.95976883 -0.22986546 -0.6675298 -0.50494725 -1.0139467 -0.3033055
0.35273355 0.5651006 1.867986 0.467086 0.8243738 -0.15608448 -1.0799369 -0.3830223
-0.5934431 -0.3475128 -0.7888378 -0.2633814 -0.18170656 0.23072957 0.39103562 0.081707045
0.2783607 0.13418971 0.26529709 0.05607699 -0.31124297 -0.03587143 -0.7278892 -0.15292571
-0.7640403 -0.46492967 -0.8512577 -0.21046631 0.3033985 0.5113117 1.9977902 0.44355336
-0.04343881 0.2815606 0.96760744 -0.19231912 0.39861858 0.3287755 0.62159705 0.15571941
0.48520306 -0.04688567 -1.653574 -0.33397642 0.05394439 -0.42548716 -0.7510697 -0.06066929
-0.109306015 -0.23856881 -0.16613781 0.24116705 0.19050413 0.44001812 1.0927747 0.3380349
-0.5601628 -0.45287102 -0.6121265 0.07557827 -0.5233871 -0.44780743 -0.1245866 -0.28426188
-0.37874532 -0.18731122 -0.8613975 0.072184995 0.17456971 -0.32078168 -0.7185754 -0.40100518
0.32998 -0.23356159 -0.027849194 0.11030085 1.0291666 0.7130916 -0.5335655 -0.3928467
-0.2614238 -0.4236573 -1.4270601 -0.47489947 -0.4294493 -0.46337107 -0.4314921 0.21668962
0.9542017 0.37663183 -0.6965902 -0.2666114 -0.101161055 -0.13292812 -0.42110473 -0.26195294
0.34006917 0.46354508 0.94594795 0.24811557 -0.3982144 0.5139103 0.20533368 -0.24972758
1.2022076 0.62291276 -0.20854847 -0.15556525 -0.1393515 0.30366987 -1.7416465 0.14131163
0.36421224 0.32707456 0.7342607 -0.065488696 1.0796677 0.62039065 0.177673 -0.32594454
-0.36325538 -0.25422576 0.5825165 -0.06990936 -0.14494354 -0.0062271627 -0.015555801 -0.034674402
-0.6012836 -0.2202701 -0.7948371 -0.13515072 0.76243937 -0.08826619 -1.0462776 -0.08984902
-0.9260205 -0.6146068 -0.9365313 -0.6478121 -0.030654706 0.28671187 0.74058497 0.44925937
0.23238502 -0.04753102 0.6051536 0.28453797 0.465111 0.54070115 2.386414 0.4674883
-0.11792726 0.6212738 1.0621784 0.52290773 0.28756827 -0.11376238 -1.2453705 -0.43641463
0.7274168 0.39801097 -1.6092832 -0.35009775 0.2022788 0.59109175 1.7197282 0.4793976

layer1.bias f4 [128]
00000000: c3a6 f53e 472e f73e 55df 213f fa8e 58be
00000010: 852e afbe 485f 413f 9121 43be c967 c6be
00000020: 240c 0c3f 2ade 393f 45d7 113f a415 253f
00000030: c3e6 ab3e 1c81 ecbe d969 353f 512d af3e
00000040: c2e7 a23e 59d6 a23e 2435 d8be 108d 00bf
00000050: 2497 9bbd b184 bfbe 957c 05bf 7143 e6be
00000060: 8bc3 a2be d325 98be 9baa 393f 2f25 ef3e
00000070: 9a17 ccbe 2177 febe ce06 3e3f 6711 293f
00000080: a9a2 edbe 1f80 8bbe 4f5e 0f3f c91c e43e
00000090: 8b3e 75be 141b 97be 66ad 133f ef5a c63e
000000a0: 7f5a 2d3f 8cfd efbd 48d4 f23e 3500 c8be
000000b0: 39c6 30bf d2c3 da3e 1a9c 223f 7cc8 013f
000000c0: b4bc 57be 772f 8b3e 2e9c 223f 4e84 4bbd
000000d0: 2030 213f 8d7d 3b3f 23d9 8dbe 598d 893e
000000e0: 4f31 a9be 450b 1d3f b66b 2b3f ae0b 0cbf
000000f0: 5018 e13e d71b fbbe e5d9 bb3d 37d0 693e
00000100: 8aae 1e3f 9674 babe ad72 0c3f 3ba4 e8be
00000110: 883e f03e 4350 23bf 1fe2 f3be 2df3 9d3e
00000120: ce67 373f 9b59 16bf ad85 99be 32a9 ca3e
00000130: 6661 023f 3b6f 773e c494 d4be 0407 193f
00000140: 440d b9be 27df 323f e859 ee3e a9a6 b43e
00000150: 3f75 b03e d9a0 143f d911 7abd c5e2 03bf
00000160: f758 0a3f b518 06bf 8427 c6be 6825 fcbe
00000170: 4648 1c3f b6fa 343f 6ee9 e3be a190 9e3e
00000180: 6667 383f bebd 913e 0c2a e53e 32d2 293f
00000190: 89ff 47bf afcd 8f3e 1b2d d8be fdc9 503e
000001a0: 6ace 98be 2ff0 9abd f751 1c3e e640 203f
000001b0: c1b9 eabd 1b3d 9fbe c00b 07bf 2971 9e3e
000001c0: beaa d1be 0a6b f93e a348 96be dbf8 2c3f
000001d0: 1302 a4be 4b3b 103f 6651 6b3e 0124 c0be
000001e0: 8ebe a13e a0e7 c93e ef45 02bf 6d06 d03e
000001f0: 3bc9 723e 75f6 b03e 7674 5e3e 0ec2 13bf
0.47978792 0.48277494 0.632314 -0.21148291 -0.3421518 0.7553601 -0.19055773 -0.38751057
0.54706025 0.7260462 0.569691 0.64486146 0.33574495 -0.46192253 0.70864636 0.3421426
0.31817442 0.3180416 -0.42228043 -0.50215244 -0.07597187 -0.37405923 -0.5214322 -0.4497333
-0.31789812 -0.29716358 0.7252595 0.46708056 -0.39861757 -0.49700263 0.74229133 0.6604218
-0.46413162 -0.27246186 0.5600328 0.4455321 -0.2394964 -0.29512846 0.5768646 0.38741252
0.6771621 -0.11718282 0.47427583 -0.39062658 -0.69052464 0.42727524 0.6351944 0.5069654
-0.21068078 0.2718465 0.6351956 -0.049686722 0.6296406 0.7323845 -0.27704725 0.26865652
-0.33045432 0.6134532 0.6696123 -0.5470532 0.4396386 -0.49044678 0.091724195 0.22833334
0.61985075 -0.36417073 0.5486248 -0.45437798 0.46922708 -0.63794345 -0.47633454 0.3084959
0.7164277 -0.5873048 -0.299848 0.3958221 0.5092987 0.24163525 -0.4151975 0.5977633
-0.36142933 0.69871753 0.46552968 0.35283402 0.34464452 0.58057934 -0.061052177 -0.515179
0.54042 -0.5238145 -0.38702023 -0.4924729 0.6104778 0.70695055 -0.4451403 0.30969718
0.72032773 0.28465074 0.44758642 0.6633636 -0.7812429 0.28086612 -0.42221913 0.20389552
-0.2984498 -0.07565343 0.15265642 0.6259903 -0.11461211 -0.31101307 -0.52752304 0.3094571
-0.40950578 0.48714477 -0.29352292 0.67567223 -0.32032833 0.56340474 0.2298027 -0.3752747
0.31590694 0.39434528 -0.5088796 0.40629902 0.23709576 0.34563032 0.21724114 -0.5771798

layer2.weight f4 [128, 128]
00000000: 9f6e 873e 1eb5 453e 19b7 353e 8f04 58bf
00000010: a984 0ebe 1af7 463e ac40 34bf 7596 b8be
00000020: b958 f73d c779 883e 0e61 fa3d 23a6 1a3e
00000030: 4888 2ebd 03e2 a8be c3d0 a73d 0870 483e
00000040: 5468 923e d0c3 723c 54b1 88be 2b01 d1bd
00000050: c64a e0bd 55a4 99be 11fc 7ebf 5ef5 253d
00000060: c28b b5be 7d0c 8bbd fd6e 493e 287b a83d
00000070: 5599 3ebe dec3 58bf ebe6 253e dd10 6f3e
00000080: 008b ffbe 6fcb ce3e 167f d33d 539e ac3e
00000090: 97d1 aebd 0cb1 8bbe 8275 5d3d 8a45 0fbd
000000a0: f6db 2b3e 8389 febb ad39 32be 8619 4bbc
000000b0: e634 9fbd 0392 203d c01f 9b3e faa7 863c
000000c0: edf9 c8bd e2fb 163e ea6c 163d ee58 dbbd
000000d0: 0ad0 943e 0ea4 523e 2eb4 e6bd 69c5 6c3e
000000e0: 4ffb cbbd 3198 893e 8758 4c3e 3e3c 63bf
000000f0: 0db0 cb3e b7e0 9bbd 9d08 b8bc c29f 0bbf
00000100: 8e06 843e 7909 28bf 3ee9 26bd d908 0fbf
00000110: eebc 603e ff6a 6dbf e78a 0fbf c31c 30be
00000120: f925 ac3e 4ea7 eebe f167 5cbf 4b5b 933d
00000130: ffd4 9b3e a5ce 683e 136f 3dbf 0e86 883e
00000140: 029e 10bf bc95 3b3e 5864 993e 8479 393e
00000150: 69d4 823e 08d1 4b3e f90c b7bc c676 59bd
00000160: e818 483e 1956 45bf e4ac 0ebf a1c4 d7be
00000170: 5862 f63d f6aa 133e 761c 23bf bd5a cb3e
00000180: f6b0 483e fa16 09be 3919 613e 5a23 3a3e
00000190: 1ae7 94be 8c12 9a3d 9cf6 d6be 3744 8b3e
000001a0: 60e1 2fbf cbc2 90be 587d d43e b63a 463e
000001b0: eef0 823e 0f99 83be 02bc f1be 01f7 0abf
000001c0: 1660 babe 2b0a 043e 0a0f b0be 5305 8c3e
000001d0: 9ade 06bf 3ee3 4e3e 6270 c73e 67b8 b2bd
000001e0: e1ed 9c3d e23d 883e bbee 1cbf 9b32 843d
000001f0: 6671 48be adc1 263e 89ca 0d3e c7cd 9dbe
00000200: bf62 533d b86c 633e 657a 8a3e 5616 7dbf
00000210: 9fef a93e 10fa 913e 5687 80bf 94cc 693e
00000220: 7dbc 953c 0291 093e 1024 bbbc 3b95 233e
00000230: 9031 533d c73f 393e 65f7 2d3e 014f 663e
00000240: 2080 003e 0ded a8be 2733 9fbf 5d1b 5cbd
00000250: 9fe1 b2be 4660 87bd 2a45 0f3f 886f 67bf
00000260: 1196 1c3e 2b08 833c c21e 013e 74c4 2fbc
00000270: 4039 b4bc 999f 113f 77d3 793e c3ff 6c3e
00000280: 735b 46bf 336c 1ebe bdf6 183e e87a b43e
00000290: 700f a03b a0f7 cc3d b7d0 153e e272 92bd
000002a0: cbe7 c13d 2921 19bd c650 833d b748 53be
000002b0: baa9 92be 9ca1 c03d 087e 343e adde 273e
000002c0: 2256 bf3c 9989 3bbe 9fd6 0a3e f789 f53d
000002d0: 3037 3e3e 4fe0 183e dbbf 21bd dab2 0e3d
000002e0: b26b 0cbf ab9e 953e 5605 463e 716e 2f3f
000002f0: 0b4f b73e 45c6 06bf 9279 50bd 7478 fa3e
00000300: baf3 d93d dbcb 84bf 6577 1a3e 7eaf 09bf
00000310: 2560 0c3e eda5 f53e aada a93e 3f11 103e
00000320: e72b 8e3e 997a 53be e69e 79bf 1c33 183e
00000330: 0e9f 863e 058d 53bd 40ff cfbe f668 1f3e
00000340: f8a5 d23e bb31 483e cdb5 9e3e a001 ac3e
00000350: 7539 6b3e dc85 2e3e 4f07 5e3e c698 c23c
00000360: bb77 313e e8d3 133f 1479 ca3c c488 5c3e
00000370: cf21 e73d e750 bf3d 519e 233f 3b40 b13e
00000380: bad2 f13d 7e93 d6bd c8c5 383d 186b 043e
00000390: 5c81 e6bd 77ea 1f39 829c 103f 19b4 68bd
000003a0: 7bec 183f 4767 883e 9cf9 6d3e e878 0f3e
000003b0: f75f 4fbe f48b eabc 1502 a2bf 161d bf3e
000003c0: 7a11 41bf a550 5e3c da3e 7fbf dff9 713e
000003d0: 6a29 873c 89ff 603e 3bd8 5abe 03b1 913e
000003e0: 4cb8 d03d c280 6b3e 70a6 0a3f 48d9 73be
000003f0: 4c53 513e e26e 48bd e959 c7be f776 9b3e
0.26451585 0.19307372 0.17745627 -0.84381956 -0.13917793 0.194302 -0.7041118 -0.3605229
0.120774694 0.2665541 0.12225543 0.15102439 -0.042610437 -0.32984933 0.08194115 0.19573987
0.2859522 0.014817193 -0.2669779 -0.10205301 -0.10951762 -0.30008188 -0.9960337 0.040517204
-0.3545819 -0.06789491 0.19671245 0.08226615 -0.18613179 -0.8467387 0.1620137 0.23346277
-0.49910736 0.40389583 0.10326974 0.33714542 -0.0853607 -0.27283514 0.054067142 -0.034978427
0.16783127 -0.0077678575 -0.17404814 -0.012396222 -0.077737615 0.039201748 0.3029766 0.01643752
-0.098132946 0.14744523 0.036724962 -0.10710321 0.2906497 0.20570394 -0.11264835 0.23122181
-0.09960043 0.26873925 0.19955646 -0.887638 0.39782754 -0.0761122 -0.022465045 -0.54540646
0.2578625 -0.65639454 -0.04074978 -0.55872875 0.21947071 -0.9274139 -0.56071323 -0.17198472
0.3362272 -0.46612018 -0.860961 0.07195147 0.3043594 0.22735079 -0.7399761 0.26664776
-0.564911 0.18318838 0.2995937 0.18112761 0.2555268 0.19903958 -0.022345053 -0.053091787
0.19540751 -0.770845 -0.5573256 -0.42142203 0.12030476 0.14420685 -0.637153 0.39717665
0.19598755 -0.13387671 0.21982278 0.18177548 -0.29082566 0.07523069 -0.41985023 0.2720048
-0.6870327 -0.28273615 0.4150188 0.19358334 0.2557444 -0.25702712 -0.4721375 -0.5428315
-0.36401433 0.12894504 -0.34386474 0.27347812 -0.52683413 0.20203874 0.3895293 -0.08726578
0.07662559 0.26609713 -0.61301774 0.06454965 -0.19574508 0.16284819 0.13846792 -0.30821058
0.051607843 0.22209442 0.27046505 -0.98862207 0.3319063 0.28511095 -1.0041301 0.22831947
0.018278355 0.13434222 -0.022844344 0.15974896 0.05156094 0.18090735 0.16988905 0.22491075
0.12548876 -0.32993355 -1.2437485 -0.053737033 -0.3493776 -0.066101596 0.5596491 -0.9040456
0.15291621 0.015995106 0.1260939 -0.01072799 -0.021999955 0.5688415 0.24397074 0.2314444
-0.7748329 -0.15470962 0.14937873 0.3525002 0.004884653 0.10008168 0.146304 -0.071508184
0.09468039 -0.03738514 0.06411891 -0.20633207 -0.28645116 0.094058245 0.17626202 0.16393538
0.023356501 -0.18314208 0.13558434 0.11989205 0.1857574 0.14929317 -0.03948961 0.034838535
-0.5485183 0.29222617 0.19337973 0.68527895 0.35802492 -0.52646285 -0.05089719 0.48920023
0.1064219 -1.0374712 0.15084608 -0.53783405 0.13708551 0.47978154 0.3317464 0.14069079
0.2776787 -0.20652236 -0.97508085 0.14863247 0.26293224 -0.05164816 -0.40624428 0.15567383
0.4114225 0.1955022 0.30998078 0.3359499 0.22971137 0.17043251 0.21682476 0.023754489
0.1733083 0.5774522 0.024715938 0.21536547 0.11285745 0.09341603 0.63913447 0.34619316
0.11807771 -0.10477351 0.045110494 0.12931478 -0.11255142 0.00015250767 0.5648881 -0.05681238
0.5973584 0.26641294 0.2323975 0.14010966 -0.20251451 -0.028631188 -1.2656885 0.37326878
-0.7541729 0.013569032 -0.9970528 0.23630475 0.01649924 0.21972479 -0.21371548 0.28455362
0.10191402 0.22998336 0.54160213 -0.23813355 0.20441931 -0.04893387 -0.38935784 0.303642

layer2.bias f4 [128]
00000000: d2b3 273e 3503 b23d e2ae 36bd d38c 733d
00000010: 7b4f 4e3d 681f c93e cb87 6b3e 7299 a1bd
00000020: f261 01bc b2c5 98bd 2433 743e 9504 2a3e
00000030: c39c e33d 5f44 313e db5c 97bd 7b5c 863d
00000040: 0aad fc3d d3cf 93bd c02a 073e ec97 353e
00000050: 7e4f 783d 4b48 b5bd a80f 373e 49d7 07be
00000060: dba5 5f3e 8b05 1c3e 6972 873e d2a0 2abe
00000070: e35a 623e 4050 8c3d 7bfb 28be 18c2 753e
00000080: 42f3 c73d 0cdd 4f3e 2059 13be 1bbb 063d
00000090: 9056 20be 6b2f d13d f52d 923e 5408 e43d
000000a0: eca0 853e d43c 9b3e f890 33bd 2e77 303e
000000b0: 2332 aa3e cb94 3dbd 912f 2fbe a21e 8f3e
000000c0: 9039 4fbd c1a9 a5bd 55f4 9dbd 3da4 81bb
000000d0: 0081 953e 8aaf 9abd bd0e 1bbe 7c86 91bd
000000e0: 8048 5f3d e3a3 3c3e 6128 44be 582c e2bd
000000f0: 81cb d03d b898 71be 441b 13bd 1495 85bd
00000100: a8cb a5bd db97 0bbe 3bb1 58be ead4 083e
00000110: 9021 98bd 620f 233e fa96 073e b4da 613d
00000120: e825 c53d f0b9 35be 591c 163e 5574 563e
00000130: d2ba 6e3d 30f3 7cbd 7bcb 08be 7de2 d0bc
00000140: 37f3 7dbd 7fb7 3b3e 02e7 273d 6cab 1abe
00000150: 1912 903e d688 8b3d 785d 80bd d9b7 6f3e
00000160: cdfe 5f3d 33a0 963d 999b 1a3e ffdd 2c3e
00000170: 7521 00bb 41fd 35be 14a4 07be 3308 373d
00000180: b5b1 c0bd dfd0 423e 1da2 1dbe d251 083d
00000190: 0dab e43b bc60 a2bd 73bb 393e 0e6f 803e
000001a0: b7a5 863e 18d1 803d b573 5abd 6443 8a3c
000001b0: 32e1 423e 8c76 383e 0d0b 873e e597 e13d
000001c0: ece9 3b3e 8ab7 3e3e 7493 52bd f3bb 1d3e
000001d0: 9b8d b93d 78d4 a23e d446 12bb ad18 8ebd
000001e0: 125d 62bd 2324 183d d784 1f3e fc33 b1bd
000001f0: ddbf bb3d dfc5 e33d ad92 313e 7026 a6be
0.1637719 0.08692018 -0.044600375 0.059460472 0.050368767 0.39281774 0.2300102 -0.078905955
-0.007896887 -0.074595824 0.23847634 0.1660331 0.11113884 0.17311238 -0.07390758 0.06560608
0.12337692 -0.07217374 0.13199902 0.17733735 0.060622685 -0.088516794 0.17877066 -0.13265719
0.21840613 0.1523649 0.26454476 -0.1666291 0.22104983 0.06851244 -0.16502182 0.23999822
0.097631946 0.20299166 -0.14389467 0.03289328 -0.15658021 0.102141224 0.28550687 0.11134401
0.26099336 0.30319846 -0.043839425 0.17232963 0.33241376 -0.04628448 -0.17107989 0.27953058
-0.050592005 -0.080890186 -0.07712618 -0.0039563463 0.29199982 -0.07553013 -0.15142341 -0.07105729
0.0545125 0.18421893 -0.19156028 -0.11043614 0.10195065 -0.23593414 -0.035914674 -0.06522575
-0.08095485 -0.13632147 -0.21161358 0.1336247 -0.074282765 0.15923837 0.13241187 0.055140212
0.09626371 -0.17746711 0.14659251 0.20942815 0.058283634 -0.06175536 -0.13358872 -0.025498623
-0.061999526 0.18331717 0.04099179 -0.15104455 0.28138807 0.06813209 -0.06267828 0.23409976
0.054686356 0.07354774 0.15098418 0.1688156 -0.0019551192 -0.1777239 -0.13246185 0.044685554
-0.09408895 0.1902499 -0.15393873 0.033281155 0.0069783987 -0.07928607 0.18137912 0.25084728
0.26298305 0.062898815 -0.053333003 0.016877837 0.19031218 0.18013972 0.2637562 0.110153
0.18350953 0.18624702 -0.051410154 0.15403728 0.09060212 0.31802726 -0.002232005 -0.069383
-0.05526454 0.037143838 0.15578018 -0.08652493 0.091674544 0.11121725 0.17341109 -0.324512

layer3.weight f4 [2, 128]
00000000: 3d2b ba3e c2fb 0dbf e79b 9bbf 082e 1b3f
00000010: d15f 243c 9bb7 f13e 4800 e93e 60bc 06bf
00000020: 8997 cfbc ed69 74bf 0732 f93e e765 163f
00000030: bd50 b93e b792 0b3f a9b1 a1bc 9f91 fe3e
00000040: 5aa7 0b3f 4351 65bf 5fc2 4dbf fa28 ea3e
00000050: 2969 8abf e541 adbd 5b78 2d3d f02a edbe
00000060: b4dd f23e 8d6e bc3e 4091 ee3e 7a6c 59bf
00000070: f65b af3e c0f3 fc3e 1f69 49bf bd03 b93e
00000080: b1b0 f43e d2c2 a93e 0bd1 66be 3e3d 143e
00000090: ce65 9bbf d3ba b03e 2b87 ec3e 6723 103f
000000a0: 394f bd3e 1fbf dc3e 83ee c2be 94c0 013f
000000b0: 56d9 ec3e 71c3 983d 61fd 27bf 2468 c63e
000000c0: 1a1a 8e3d 82b6 843a 7c4a eabe 8502 6fbd
000000d0: a423 da3e 9762 803d 095a 1cbf 6e47 60bd
000000e0: b6d0 1d3f 11ed 1a3f f3e3 7dbf 9680 b9be
000000f0: c222 083f 57ba 07bf 0d8a ac3e edca 313d
00000100: 3ec4 be3e 2091 e43d a021 01bf da73 043f
00000110: 631d 053c 92db dd3e a28e 8abf e1d7 0a3f
00000120: 910c 0bbf 1595 87bf 4c58 113f cd00 d73e
00000130: 36b9 bc3e 1c15 d33e 4228 9dbf 0c2e 583a
00000140: 43a5 943d faf2 e23e 696d 103f 1557 53bf
00000150: d70a c93e aafd 88bc 149e 9a3e 0dca eb3e
00000160: 09d8 40bd cc55 5e3e 0c59 343f ed17 44bf
00000170: c205 4a3e 3cc1 39bf ce6d 42be 6c58 38bd
00000180: 1fa1 01bf b3e9 d33e c174 91bf 9680 49bd
00000190: 8c79 20bf e937 63bd 54de ef3e 8f61 cc3e
000001a0: 888b 013f aff8 80be 7e2d e9be 9128 53bd
000001b0: cb30 0a3f d53b df3e a3cc cd3e 63be 063f
000001c0: 36c4 0c3f 3e3d bc3e f50a ab3b b42d bf3e
000001d0: dda3 19bf 3bdc c33e 98e4 3cbd 8333 05bd
000001e0: 6f58 edbc 86cb c8bc b1e3 143f 16ca a13d
000001f0: a50f 033f 018f 063f a1e6 8fbf d26a 71bf
00000200: ad69 fc3e 62fe abbe 5f32 673e f9f0 fa3e
00000210: 4660 6b3d d9b2 aa3e f2eb 913e 8cb4 31bf
00000220: f074 1cbc f242 c0be 7588 c53e 23e0 463d
00000230: e452 9cbe 8c5d e33e c0a1 0abd ebf9 fe3e
00000240: 386f f03e f7ca 2c3f 2a7d c2be 67a2 093f
00000250: c0dc c4bd bf32 6b3f b658 47bf 63da f2be
00000260: 12ae bb3e 9d6f 883e 3fa0 b03e f5f0 1bbf
00000270: 4a71 cd3e 451d 8e3e 980c a8bf d9ca ef3e
00000280: 68f7 de3e 5049 163f 9832 8ebf 01e0 00bf
00000290: dd35 e8be c9a8 4abf 642e d53e a0b4 023f
000002a0: a505 f23e 8846 b43e d765 ea3e e360 d03e
000002b0: 8fc7 8f3e f093 2cbd 7baa 7ebe 841d d03e
000002c0: 936a 953d b815 febc 9060 52bf 41f5 8dbc
000002d0: def6 fd3e 5f79 b63c f331 05bf e1e2 9b3d
000002e0: f252 083f 2b03 923e b0a0 213f c915 08bf
000002f0: c112 133f de7f adbf dc85 0fbf a69b 893d
00000300: 5b5f 26bf 0585 62bf c3ec 25bf a6c3 db3e
00000310: 2f66 593c 6b33 c43e 9be4 97be 00ea f13c
00000320: 58b1 213f c0c8 a8bd 6161 d53e 7b50 0a3f
00000330: 4f8f ea3e 1308 51bf e49f a43d 4923 52bd
00000340: 45fc f9bb b6ae 833e 464f fd3e 8ef8 35bf
00000350: c752 e23e 8c21 a8bb d81a 37bf e2c4 c93e
00000360: 8019 3cbd a2cb 00bf e789 41bd a8ae 46be
00000370: f528 95be d57b 17bf 07ce 9cbf b028 e8bc
00000380: 60f1 4abf a7ff 963e f36a a8bd 3ee6 45bd
00000390: a52d 5c3e 65bf de3b 296e 013f 6b88 f43e
000003a0: 577d db3e 4b6c 513f e257 9abf fc6e 99bc
000003b0: 8636 133f c0c1 f23e e8b5 e03e f8de ff3e
000003c0: ac0b 023f 68d9 eb3e 35e5 92bd a6ba f03e
000003d0: c04b a5be 0c4c dc3e 9729 57bc af90 f53c
000003e0: 250a 073d 4fc7 973c a252 f33e 5bf2 9a3f
000003f0: 4cfa ef3e 6413 f43e c916 943d 6eaf 0bbf
0.36361113 -0.55462277 -1.2156953 0.60617113 0.01003261 0.47210392 0.45508027 -0.5263119
-0.025340812 -0.9547413 0.4867098 0.5874924 0.3619441 0.54520744 -0.019738035 0.49720475
0.54552233 -0.8957712 -0.8037471 0.45734388 -1.0813342 -0.08459834 0.042351108 -0.4632182
0.4743477 0.36803094 0.46595192 -0.8493115 0.34249848 0.49404716 -0.7867603 0.36135665
0.47791055 0.3315645 -0.22540681 0.14476487 -1.2140443 0.34517536 0.46196875 0.5630402
0.36974505 0.43114564 -0.38072595 0.50684476 0.46259564 0.074591525 -0.65621 0.38751328
0.06938572 0.0010125192 -0.45759952 -0.058352012 0.42605317 0.062688045 -0.6107488 -0.05475562
0.6164659 0.60517985 -0.9917595 -0.36230916 0.53178036 -0.5301871 0.33699074 0.043406416
0.37259096 0.11160493 -0.5044193 0.51739275 0.008124682 0.4333158 -1.0824778 0.54235655
-0.5431605 -1.0592371 0.56775355 0.41992798 0.36860055 0.41227043 -1.2277911 0.00082466076
0.07258084 0.44326 0.56416947 -0.8255475 0.39266083 -0.016722519 0.3019873 0.4605259
-0.047081027 0.21712416 0.70448375 -0.7659901 0.19728759 -0.7256048 -0.189872 -0.0450062
-0.50636476 0.41389236 -1.1363755 -0.049194895 -0.62685466 -0.055473242 0.4684931 0.3991818
0.5060353 -0.2518973 -0.4554252 -0.05155236 0.539807 0.43600336 0.40195188 0.5263426
0.54986894 0.36765474 0.005219812 0.37339556 -0.6001566 0.3825396 -0.04611644 -0.03251983
-0.028972832 -0.02451111 0.5815993 0.07899873 0.51195747 0.52561957 -1.1242257 -0.9430362
0.49299374 -0.33592516 0.22577809 0.49011973 0.05746486 0.33339575 0.28500324 -0.6941612
-0.009549364 -0.37551075 0.3858067 0.048553597 -0.3053199 0.44407308 -0.033845663 0.49800047
0.46959853 0.674972 -0.37986118 0.5376343 -0.09612417 0.9187431 -0.7786974 -0.4743224
0.36656243 0.26647654 0.34497258 -0.60914546 0.40125495 0.27756706 -1.3128843 0.46834448
0.4354813 0.58705616 -1.110919 -0.503418 -0.45353594 -0.79163796 0.41636956 0.5105686
0.4726993 0.3521006 0.45780823 0.4069892 0.2808194 -0.04213327 -0.2486972 0.4064752
0.07295718 -0.031016216 -0.8217859 -0.01732886 0.49602407 0.022274671 -0.5202934 0.07611633
0.53251565 0.28518042 0.63135815 -0.5315824 0.5745049 -1.3554647 -0.5606363 0.06719141
-0.6498925 -0.8848422 -0.64814395 0.42922705 0.013268991 0.3832048 -0.296666 0.029530525
0.6316123 -0.08241415 0.41675857 0.54029053 0.4581246 -0.81652945 0.08038309 -0.05130318
-0.00762895 0.2571923 0.49474543 -0.7108239 0.4420378 -0.005130952 -0.71525335 0.39408022
-0.045922756 -0.5031072 -0.047250655 -0.19402564 -0.2913281 -0.5917333 -1.2250375 -0.028339714
-0.7927456 0.29491922 -0.08223524 -0.04831528 0.21501787 0.0067977183 0.50558716 0.4776033
0.42869064 0.81805867 -1.205807 -0.01872968 0.5750507 0.47413445 0.43888783 0.499748
0.5079906 0.46064305 -0.07172624 0.470174 -0.32284355 0.4302677 -0.013132474 0.029976217
0.03296866 0.018527655 0.4752398 1.2105211 0.4687065 0.47671044 0.072309084 -0.5456456

layer3.bias f4 [2]
00000000: 3ef5 ab3d bf87 5a3d
0.083963856 0.053352114
